res/APW_2d/models/101.pt (torch, 3269 bytes, 1 tensors)

weight f4 [30, 2]
000000 d1 ec 4d c0 9a 43 74 c0 e2 f5 e3 bf 05 b8 eb 3e
       -3.2175791 -3.816626 -1.7809412 0.46038833
000010 26 38 1f c0 58 0c 90 bf 16 87 03 40 fb 09 c6 c0
       -2.487802 -1.1253767 2.05512 -6.1887183
000020 15 30 aa c0 f1 11 cd 40 96 85 e1 be 16 f5 3b 40
       -5.3183694 6.40844 -0.4404723 2.9368339
000030 49 41 02 40 02 33 89 40 11 fb 8b be 67 21 06 c1
       2.0352347 4.2874765 -0.27339986 -8.383155
000040 59 c0 fe 3f 71 4e b7 c0 5b 85 1d 41 75 79 0d c0
       1.990245 -5.7283254 9.8450575 -2.2105381
000050 d9 62 e8 40 7f 35 67 c0 98 73 23 c1 b1 0e ba 3f
       7.2620664 -3.6126401 -10.215721 1.4535733
000060 66 64 79 c0 6f 84 8a 3f d8 f2 10 c1 37 01 bd 40
       -3.8967528 1.0821666 -9.059288 5.9063983
000070 07 e6 c8 c0 4e 21 da bf c4 f3 8a bb 62 71 70 c0
       -6.2780795 -1.7041414 -0.004240485 -3.7569203
000080 6b 6f d3 3f e5 d0 25 40 14 a8 31 3f e3 c0 9e 40
       1.6518377 2.590875 0.6939709 4.9610457
000090 37 78 5e c0 de 39 d4 c0 85 2e 6f c0 95 3d bd bf
       -3.4760873 -6.632064 -3.7372143 -1.4784418
0000a0 a6 7d 11 40 76 ad 01 40 ce bc 80 40 ec 04 67 40
       2.273294 2.0262122 4.0230474 3.6096754
0000b0 c4 ce 96 40 41 7c cf 3f f0 ab f7 40 bc 00 34 3e
       4.71274 1.6209794 7.7397385 0.17578405
0000c0 a4 86 f2 3f 58 70 a8 40 0a e0 6e c0 f3 9b 4f c0
       1.8947339 5.263714 -3.7324243 -3.2438934
0000d0 86 09 83 c0 45 c6 92 40 f0 e2 0e be 66 20 aa 40
       -4.0949125 4.586703 -0.13953757 5.316455
0000e0 ab 7c 77 40 c1 bc a9 c0 07 1f 15 40 bc de a7 3f
       3.8669841 -5.3042912 2.3300188 1.3114848
