res/APW_2d/models/115.pt (torch, 3269 bytes, 1 tensors)

weight f4 [30, 2]
0	0x4070928f	3.7589452
1	0x4000c06e	2.011745
2	0x40a50834	5.1572514
3	0x3ff825dd	1.9386555
4	0xc0a8e170	-5.277519
5	0xc0cea3c1	-6.4574895
6	0xc0d4ef06	-6.6541777
7	0xc0cb6862	-6.356492
8	0xc08f43aa	-4.47701
9	0x3f3b327b	0.731239
10	0xbf810285	-1.0078894
11	0x3d4a08d7	0.049324837
12	0x41187ae3	9.530002
13	0xc0972d6a	-4.7242937
14	0x4029a05f	2.6504133
15	0x3fecc9bd	1.8499066
16	0xc069c684	-3.6527414
17	0x40775134	3.8643312
18	0xc0a812c7	-5.252292
19	0x404f6f1c	3.2411566
20	0xbf82c9df	-1.0217856
21	0x40881a1a	4.253186
22	0xc1860f98	-16.757614
23	0xc107a84d	-8.478589
24	0x401583e3	2.3361747
25	0x40ab30e4	5.349718
26	0x3fa55695	1.2917048
27	0xc0d30f33	-6.5956054
28	0x40317c29	2.7732031
29	0x409d1982	4.9093637
30	0x4073905b	3.8056858
31	0xbe1ec07f	-0.15503119
32	0x3fd0f90f	1.6326007
33	0xc0a2490a	-5.071416
34	0x3f71edc3	0.9450342
35	0x3f58898b	0.84584874
36	0x40c14b3d	6.0404344
37	0x412af8bb	10.685725
38	0xc0e668d3	-7.200296
39	0x3fca6a01	1.58136
40	0xc0042143	-2.0645301
41	0xc0bcb3a9	-5.896931
42	0xc0df2b04	-6.974001
43	0x40e08210	7.015877
44	0x4139bc58	11.608482
45	0xc1274a26	-10.455603
46	0xc0f4d36c	-7.6508083
47	0x4110a33c	9.039852
48	0xbdf8a8ec	-0.12141594
49	0xc05a70a9	-3.4131262
50	0x40324945	2.785722
51	0x408132f7	4.0374713
52	0x40b78e9a	5.7361574
53	0x4009d025	2.1533291
54	0x410db753	8.857257
55	0xc00faad9	-2.2448027
56	0xbfa91fca	-1.3212826
57	0xc0298e5e	-2.6493144
58	0xc1181d3c	-9.507137
59	0xc0b1425a	-5.5393496
