res/APW_2d/models/117.pt (torch, 3269 bytes, 1 tensors)

weight f4 [30, 2]
0	0x405541d6	3.3321433
1	0xc0969d46	-4.7066984
2	0xc092e3a3	-4.5902877
3	0xbfb8d741	-1.444069
4	0xc0b6693d	-5.7003465
5	0x410f90de	8.972868
6	0xbfc8e55c	-1.5694995
7	0x3f962a97	1.1731747
8	0x41576ad3	13.46358
9	0xc1214a22	-10.080599
10	0xc0f5fbd5	-7.686991
11	0xc031c031	-2.7773554
12	0x3fc60013	1.5468773
13	0x404d86f9	3.211363
14	0x41017661	8.091401
15	0xc0344c83	-2.81717
16	0xbf30573b	-0.68883103
17	0x4089e78a	4.309514
18	0x4104b452	8.2940235
19	0x4008e44a	2.1389337
20	0xbfca5b99	-1.5809203
21	0xbf91c333	-1.1387695
22	0x403ea3b0	2.9787407
23	0xc0ef56d8	-7.479351
24	0xbf95cdcb	-1.1703428
25	0x400befd5	2.1865132
26	0xc0bf7281	-5.9827275
27	0xbefa6506	-0.489052
28	0x3e53a67a	0.20668975
29	0x40a6fd01	5.2183843
30	0xc0040e69	-2.0633795
31	0xc0b8ca9e	-5.7747335
32	0x400c5c14	2.19312
33	0xc03606e9	-2.8441718
34	0xc1796cfd	-15.589108
35	0x40a1a227	5.051044
36	0xc07b8e12	-3.9305463
37	0xc0c98157	-6.2970386
38	0xc07eda9e	-3.9820933
39	0x403c94a0	2.9465714
40	0xc0aba9e1	-5.364487
41	0xc04c24f4	-3.1897554
42	0xbf9fce57	-1.2484845
43	0xbf596bb3	-0.8492996
44	0x40fd3557	7.912761
45	0x3e077334	0.1322754
46	0x4052982a	3.2905374
47	0x3ffa30f7	1.9546193
48	0x4028ffa7	2.6406038
49	0x40680bae	3.6257129
50	0xbfb9f72f	-1.452856
51	0xc092611f	-4.5743556
52	0xc10a782f	-8.654342
53	0x3fde8d56	1.7386882
54	0x4040d16e	3.0127826
55	0xc0a9d200	-5.306885
56	0x4129dfda	10.617151
57	0x3fa851b6	1.3149936
58	0x403e9584	2.9778757
59	0xc0ba5aab	-5.823568
