res/APW_2d/models/128.pt (torch, 3269 bytes, 1 tensors)

weight f4 [30, 2]
2.525837 -0.34483424 -5.008521 -2.4795196 2.7823155 -2.4626775 -0.022109179 -2.9092991
-8.114738 -3.051423 -1.1029828 3.2530928 -1.0889065 5.800984 5.820352 7.8327875
-12.418485 -3.4205499 -2.680178 -0.80298066 0.6866094 -3.0340757 -0.8362599 4.9403396
1.2026176 -5.0515113 5.1250377 6.806264 -2.0619366 -0.98674256 7.9704576 3.921514
-3.2713912 0.56191224 1.7065783 -5.266874 -2.7712467 3.429283 9.529935 -4.397867
3.2131615 5.438175 -2.074452 -3.4478736 4.9362197 -8.115709 2.4749277 6.1459956
2.0941706 5.846125 1.1887109 -5.994698 -1.1006253 -1.7487745 5.5640583 -9.869504
-0.5229071 3.4839175 -4.465309 -1.7145823
00000000: 50a7 2140 1d8e b0be ce45 a0c0 73b0 1ec0
00000010: 7511 3240 829c 1dc0 4f1e b5bc f531 3ac0
00000020: f8d5 01c1 844a 43c0 8a2e 8dbf ac32 5040
00000030: 4a61 8bbf a9a1 b940 5340 ba40 32a6 fa40
00000040: 1db2 46c1 4aea 5ac0 0988 2bc0 2490 4dbf
00000050: a2c5 2f3f 4c2e 42c0 2115 56bf 4317 9e40
00000060: 60ef 993f fba5 a1c0 4f00 a440 eacc d940
00000070: c5f6 03c0 299b 7cbf fd0d ff40 16fa 7a40
00000080: 795e 51c0 7bd9 0f3f 2871 da3f 3b8a a8c0
00000090: 1b5c 31c0 5f79 5b40 9d7a 1841 54bb 8cc0
000000a0: 70a4 4d40 8805 ae40 d2c3 04c0 f6a9 5cc0
000000b0: 83f5 9d40 f2d9 01c1 3765 1e40 ffab c440
000000c0: e406 0640 7513 bb40 ae27 983f 91d4 bfc0
000000d0: 4ae1 8cbf d8d7 dfbf c40c b240 7de9 1dc1
000000e0: 3ddd 05bf 81f8 5e40 d0e3 8ec0 6f77 dbbf
