res/APW_2d/models/132.pt (torch, 3269 bytes, 1 tensors)

weight f4 [30, 2]
-2.242627 -8.257263 2.122873 -4.6737957 -11.76425 3.698527 -1.3222842 -2.963715
-3.215695 -3.3465831 -0.29588675 3.8455493 0.08156616 -0.8149133 -2.374966 18.769897
0.17201866 -1.750186 -3.7872698 -3.255382 0.7858451 0.34386474 -2.073954 1.7758877
-5.04289 1.9928006 2.8777125 -6.546045 -2.2966406 7.740674 9.254993 -16.20611
-0.11692686 1.064534 0.3497095 1.0725071 -1.5623999 1.3422389 1.9349465 -9.645379
-2.8411543 -4.4670067 -8.889227 -0.3338933 -2.6184444 3.531314 -3.3441846 -2.6327455
-0.44773915 -8.507999 -3.727545 -3.1504505 -0.48956165 2.5701783 2.978135 -10.490432
-2.1198933 1.8019332 -12.86397 -6.4083605
00000000: 3387 0fc0 c01d 04c1 27dd 0740 bc8f 95c0
00000010: 5e3a 3cc1 abb4 6c40 9c40 a9bf 82ad 3dc0
00000020: f2cd 4dc0 6b2e 56c0 787e 97be 7b1d 7640
00000030: 290c a73d 289e 50bf 71ff 17c0 c028 9641
00000040: a925 303e 1806 e0bf a162 72c0 2e58 50c0
00000050: 252d 493f 0a0f b03e aabb 04c0 4a50 e33f
00000060: 5b5f a1c0 1714 ff3f 712c 3840 3379 d1c0
00000070: 29fc 12c0 9ab3 f740 7414 1441 1da6 81c1
00000080: 5977 efbd a642 883f 200d b33e ea47 893f
00000090: b8fc c7bf 7cce ab3f 54ac f73f 7953 1ac1
000000a0: 79d5 35c0 b8f1 8ec0 463a 0ec1 10f4 aabe
000000b0: 9894 27c0 0c01 6240 1f07 56c0 e77e 28c0
000000c0: 113e e5be c420 08c1 1990 6ec0 fba0 49c0
000000d0: d3a7 fabe cd7d 2440 c499 3e40 cfd8 27c1
000000e0: 55ac 07c0 bfa5 e63f d2d2 4dc1 4a11 cdc0
