res/APW_2d/models/149.pt (torch, 3269 bytes, 1 tensors)

weight f4 [30, 2]
1.0307293 1.044864 11.687685 -2.4409246 0.7408102 -0.015213762 0.39068812 0.89369917
-2.1355038 0.3212826 2.6459663 3.7098467 11.813648 4.8374033 -4.384416 -0.88249606
-5.906781 0.41254854 2.8791568 2.822801 -8.312162 -2.5580716 -22.479778 -0.88768595
6.7069845 4.08072 -5.9695563 3.1230001 9.176996 -5.782647 -6.271838 0.5851873
-0.41105792 2.677391 -1.9218221 4.153327 2.2458777 1.6239815 -4.255828 3.644777
0.6519758 2.8559268 4.984049 1.1885085 6.7693543 2.3413208 19.988932 5.3507686
1.5081214 3.7545104 -0.92261857 -3.6421864 -6.080297 -0.8847735 -2.847237 -3.7507837
-1.7444825 1.492548 -2.280565 -3.5138884
00000000: f0ee 833f 1bbe 853f c200 3b41 1c38 1cc0
00000010: bda5 3d3f 2543 79bc 4608 c83e 78c9 643f
00000020: 18ac 08c0 277f a43e 8357 2940 216e 6d40
00000030: b404 3d41 02cc 9a40 234d 8cc0 43eb 61bf
00000040: 5a04 bdc0 9039 d33e 1b44 3840 c6a8 3440
00000050: 9efe 04c1 72b7 23c0 96d6 b3c1 633f 63bf
00000060: 9e9f d640 4295 8240 9b06 bfc0 3cdf 4740
00000070: fad4 1241 720b b9c0 e6b2 c8c0 d6ce 153f
00000080: 2f76 d2be 605a 2b40 44fe f5bf 0ee8 8440
00000090: 76bc 0f40 a0de cf3f be2f 88c0 0744 6940
000000a0: e3e7 263f 81c7 3640 547d 9f40 0c21 983f
000000b0: 8d9e d840 33d8 1540 55e9 9f41 7f39 ab40
000000c0: 1f0a c13f e649 7040 bb30 6cbf 9519 69c0
000000d0: cb91 c2c0 8480 62bf 2239 36c0 d70c 70c0
000000e0: 344b dfbf d00b bf3f c7f4 11c0 8ce3 60c0
