res/APW_2d/models/15.pt (torch, 3197 bytes, 1 tensors)

weight f4 [30, 2]
00000000: 0625 3140 3071 eb3f b609 a9c0 bed0 e53f
00000010: 5aec ca3f ae64 92c0 6a60 b940 5b86 59c0
00000020: 83c6 1dc1 9031 5b40 1d2b 8a3f 72d1 353f
00000030: 658f 57bf 1edf 50c0 5121 0740 ed22 9c3f
00000040: dc5d 9e3f 30bc f0bf 700f 7140 548f fc3f
00000050: 4e0d da3f ce49 ef3f 5661 d1bf bc99 6dbf
00000060: 8c39 c940 2940 7f3f ed67 5fbf 1ae5 bc40
00000070: 88be 3740 6d92 a6c0 a39c f23f df6b 11c0
00000080: eb17 6ec0 952f e73f 36ad 4bc0 3625 24c0
00000090: c4aa 36c0 ffcd 22c0 008e b140 2ab8 35c0
000000a0: 865d a9c0 b8c9 cb3e 5219 e3bf 7a14 6d40
000000b0: 4143 6241 aea5 61c0 964b c040 d818 d3bf
000000c0: fb81 21c1 73cf a740 7f59 7ec0 54b2 233f
000000d0: 3a12 04c1 3909 e93f 169f 1f40 7aed 973f
000000e0: dfc3 83c0 1d0e 26bf b03c 2c41 c9ac c1c0
2.7678847 1.8393917 -5.2824354 1.7954328 1.5853379 -4.57479 5.7930193 -3.3988254
-9.860965 3.4249 1.0794407 0.71022713 -0.8420318 -3.263618 2.1114085 1.2198159
1.2372394 -1.880743 3.7665672 1.973124 1.703531 1.8694398 -1.635783 -0.92812705
6.288275 0.99707276 -0.87267953 5.9029665 2.871004 -5.2053742 1.8954052 -2.272209
-3.7202098 1.8061396 -3.182447 -2.5647712 -2.8541727 -2.543823 5.548584 -2.8393655
-5.2926664 0.39802337 -1.7742102 3.7043748 14.141419 -3.5257373 6.009227 -1.6491957
-10.0942335 5.2440734 -3.9742124 0.6394398 -8.25445 1.820594 2.4940848 1.1869347
-4.11766 -0.64865285 10.764816 -6.052342
