res/APW_2d/models/16.pt (torch, 3197 bytes, 1 tensors)

weight f4 [30, 2]
0	0x3fee87f5	1.8635241
1	0xc09aea0a	-4.841069
2	0xbf80854b	-1.0040678
3	0x40bbbb76	5.8666334
4	0xbf750e05	-0.9572452
5	0x40f3998e	7.6124945
6	0xbf9dd859	-1.2331649
7	0xc029d545	-2.653642
8	0x41380153	11.500323
9	0x40a17a2f	5.046165
10	0x4080ac3b	4.021024
11	0x40ea810c	7.328253
12	0xbf44e1d0	-0.7690706
13	0x40405a3b	3.0055072
14	0xbf19aac2	-0.6002618
15	0xbf4930de	-0.7859019
16	0x400a9c2a	2.1657815
17	0xc04b44a8	-3.1760654
18	0x40d4c457	6.6489673
19	0xc0994d2c	-4.7906704
20	0x406d7d41	3.71077
21	0xbf16ef0d	-0.5895851
22	0x4106676e	8.400251
23	0xc0e209a3	-7.0636764
24	0x40fb5b65	7.8549066
25	0xc157bde8	-13.483864
26	0xc10cb36c	-8.793804
27	0x41481edf	12.507537
28	0x414dd50a	12.8645115
29	0xbff4c076	-1.9121234
30	0x3e7409f4	0.23831922
31	0x4016f101	2.3584597
32	0x403c30df	2.9404829
33	0x40cc0c84	6.376528
34	0xc0900a33	-4.501245
35	0xc0150cd7	-2.3289087
36	0x3e7c0e34	0.24614793
37	0xc028abd1	-2.6354868
38	0x3fe56088	1.7920084
39	0x3dcc3df2	0.09972753
40	0xc0d9c025	-6.804705
41	0xc0745193	-3.817479
42	0x4111dfac	9.117107
43	0x3f01e0fe	0.50733936
44	0xbee1eb46	-0.44124812
45	0x3f7abfc4	0.9794886
46	0xc0959a9f	-4.6751246
47	0xbe5c1a4a	-0.21494403
48	0x3ffe629a	1.9873841
49	0x3e39c60f	0.1814196
50	0x3fe1e61e	1.7648351
51	0x3fd63603	1.6735233
52	0x3fc3265f	1.5246085
53	0x4067444b	3.6135433
54	0xc047a4a6	-3.1194243
55	0x3f95e3e4	1.1710172
56	0xc0e27a4f	-7.0774302
57	0xc041ec0a	-3.0300317
58	0x4062f13d	3.545974
59	0x3f94d18c	1.1626449
