res/APW_2d/models/20.pt (torch, 3197 bytes, 1 tensors)

weight f4 [30, 2]
-0.79474366 2.4716368 -5.796501 0.71862394 0.40073913 -3.316669 0.62066126 -6.2373886
2.8447652 1.0795351 -0.23558123 -1.0881641 4.8782544 0.9313051 -4.1801596 -0.9862336
-1.3678247 -0.4018443 -2.1378362 -4.073929 2.0060818 8.783903 0.836183 3.772949
-5.631554 -14.226806 5.9334936 3.175383 4.6334715 -4.016389 -2.9382548 -6.386579
-4.417724 6.381024 -5.9695177 8.144418 4.3242702 8.9700165 4.535773 6.8953156
6.6571317 3.183703 -4.406286 3.2540438 1.0114154 -5.956687 -4.0563636 -0.6902372
-14.987588 3.1930711 4.613274 5.363611 1.3020687 -3.7778504 -0.5392048 3.5098321
14.433599 -5.234367 6.054066 14.57844
00000000: 5274 4bbf 4c2f 1e40 f07c b9c0 bdf7 373f
00000010: ae2d cd3e 4e44 54c0 a8e3 1e3f b098 c7c0
00000020: a210 3640 352e 8a3f 353c 71be f648 8bbf
00000030: a91a 9c40 036a 6e3f dec3 85c0 ce79 7cbf
00000040: e114 afbf 89be cdbe 4fd2 08c0 a05d 82c0
00000050: a563 0040 de8a 0c41 1710 563f ff77 7140
00000060: b135 b4c0 ffa0 63c1 2edf bd40 7a39 4b40
00000070: 6645 9440 4286 80c0 5e0c 3cc0 db5e ccc0
00000080: ff5d 8dc0 5931 cc40 4a06 bfc0 894f 0241
00000090: 6c60 8a40 3085 0f41 0d25 9140 6da6 dc40
000000a0: 3907 d540 cac1 4b40 4b00 8dc0 4142 5040
000000b0: 0f76 813f 2e9d bec0 bbcd 81c0 63b3 30bf
000000c0: 29cd 6fc1 475b 4c40 f19f 9340 b4a2 ab40
000000d0: 30aa a63f 4dc8 71c0 5309 0abf 17a1 6040
000000e0: 06f0 6641 ef7f a7c0 e9ba c140 4a41 6941
