res/APW_2d/models/28.pt (torch, 3197 bytes, 1 tensors)

weight f4 [30, 2]
0	0x411f0744	9.939274
1	0x408a95a4	4.3307667
2	0xc0d8690b	-6.7628226
3	0x416e77ea	14.904276
4	0xc06d2a13	-3.705693
5	0xbf93a707	-1.1535348
6	0xbe902681	-0.28154376
7	0xc043062b	-3.0472515
8	0x3eb1af5c	0.347041
9	0xc0cdf83e	-6.436553
10	0xbf5e6a34	-0.86880803
11	0x40d87743	6.7645583
12	0xc0027510	-2.038395
13	0x40bc7d39	5.890286
14	0x418af90e	17.371609
15	0x410543ae	8.329023
16	0x403652dc	2.8488073
17	0xbeae8bce	-0.34091038
18	0xbf7b7712	-0.9822856
19	0xc051bd77	-3.277189
20	0x40315334	2.7707033
21	0xbebe2289	-0.37135723
22	0x3e28017d	0.16406818
23	0x40d3608a	6.6055346
24	0xc0b4cc97	-5.6499743
25	0xc05a6677	-3.412504
26	0x40801ab6	4.0032606
27	0xbd8ce6f9	-0.06879992
28	0x40f2f421	7.592301
29	0x3fdd550b	1.7291578
30	0x40921bb6	4.5658827
31	0xc0988316	-4.7660017
32	0x3f8748a2	1.0569041
33	0x40cdcdff	6.431396
34	0xc04aa20f	-3.1661413
35	0xbfd4a865	-1.661389
36	0xc05ef1cc	-3.483508
37	0x3f3ad94d	0.72987825
38	0x407269c4	3.7877054
39	0xc10ae06a	-8.679789
40	0xc02d1a72	-2.704739
41	0x40628044	3.5390787
42	0xbf9e400b	-1.2363294
43	0x3f9a1fdf	1.2040976
44	0xc0bbeb92	-5.872506
45	0xc071d4fd	-3.7786248
46	0x4035846a	2.836207
47	0x401fc73b	2.496535
48	0x4004b4ec	2.0735426
49	0xc0d9fea6	-6.812335
50	0xc182df9e	-16.359188
51	0xc0b636aa	-5.694173
52	0x40b58e37	5.67361
53	0xc15aa831	-13.666062
54	0xbe2bcbaa	-0.1677691
55	0xc0c3c58c	-6.1178646
56	0x3fe5a002	1.7939456
57	0xc0bab2ae	-5.8343115
58	0xc0a9971e	-5.299697
59	0xc081a66e	-4.051566
