res/APW_2d/models/35.pt (torch, 3197 bytes, 1 tensors)

weight f4 [30, 2]
000000 55 3b 9b c0 98 41 83 c1 f3 31 ae 3f e2 5c c9 3f
       -4.8509927 -16.407028 1.3608993 1.573147
000010 35 7a 15 40 74 a9 50 40 d4 cc 7a 40 d5 87 ed bf
       2.335584 3.2603426 3.9187517 -1.8557078
000020 1c 19 80 3f 42 1b e0 c0 4d 3d 21 c0 6b 98 ee 3e
       1.0007663 -7.0033274 -2.5193665 0.4660066
000030 4a 55 a7 c0 00 31 a3 41 84 1e 72 bf 53 dc 84 c0
       -5.2291613 20.398926 -0.94577813 -4.151895
000040 28 22 87 3e 3b de 18 c0 f1 3b 3f c0 b9 41 68 c0
       0.26393247 -2.3885639 -2.9880335 -3.6290114
000050 53 e6 c7 3d 73 78 69 3f 06 0a d0 3f 9e 51 22 40
       0.09760728 0.91199416 1.6253059 2.5362315
000060 48 87 3a c0 37 bb c8 40 94 7d c6 40 52 8a da 40
       -2.914507 6.2728534 6.2028294 6.829385
000070 33 e1 50 c0 a0 2f 99 40 b2 9d df be 18 15 43 bf
       -3.263745 4.7870636 -0.43675 -0.7620406
000080 38 fa cb 40 60 75 2b bf 9a fe 4f 3e 25 b8 b0 c0
       6.3742943 -0.66975975 0.20311967 -5.5224786
000090 d2 14 88 40 5c ec 97 40 b6 77 d3 3f 9b 9d ea 40
       4.2525415 4.7476025 1.6520908 7.331739
0000a0 e6 68 3a bf 23 50 56 bf 58 75 01 41 63 d0 68 bf
       -0.7281631 -0.8371603 8.091148 -0.9094297
0000b0 36 70 e1 bf 4a 2d 85 bf 2a af 0d c0 3a 93 b4 40
       -1.7612369 -1.0404446 -2.2138162 5.642972
0000c0 86 3c 87 41 f8 d4 0d c1 d7 6e 2e c0 12 05 bf bf
       16.904552 -8.864494 -2.7255151 -1.4923422
0000d0 eb 53 13 c0 01 86 60 c0 3c 85 a3 3e 95 e3 c2 c0
       -2.301997 -3.508179 0.31937587 -6.090281
0000e0 79 ee 00 c0 3a 8b 29 41 41 da e3 bf 6d 19 2b 41
       -2.0145552 10.596491 -1.7800981 10.693707
