res/APW_2d/models/37.pt (torch, 3197 bytes, 1 tensors)

weight f4 [30, 2]
00000000: 6334 89c0 2427 06c0 5324 9940 2872 0240
00000010: e1c8 fb3f ad13 05c1 ef0c 5440 6b61 4e40
00000020: 2c3b c340 8a69 6cc0 a446 ca40 7075 ba3f
00000030: 732f 1740 808f 5040 1a3e 7e40 96c2 5d41
00000040: 17e1 6cbe 07bb 0241 98ec 49bf b4d2 81bf
00000050: a2e1 32bf b710 8abf 2155 b840 afec 163f
00000060: f425 8540 6d15 6a40 76f1 343e c21a 3abd
00000070: 68e4 0c40 31ad 55c0 d052 1ec1 88d6 8ac0
00000080: a864 bf40 5a27 33c0 a404 03c1 770c 1541
00000090: 3b26 ae40 8ec6 86c0 b581 8740 03d0 72bf
000000a0: 6171 02c0 17ba 2840 2fbb 7cc0 0e6e c940
000000b0: 5976 9b40 42ea 2fc1 eb00 5ec0 e9b1 a2c0
000000c0: 76a8 2dbf d0b9 1ac0 0ee3 9340 8fe6 8e3f
000000d0: 7dec 9d3f 776d c0bf 5667 5bc0 43ef 1fbf
000000e0: 7d56 4a3f a0a1 e1bf 2f77 1541 a0a9 b0c0
-4.287645 -2.096139 4.785684 2.0382175 1.9670678 -8.317304 3.3132894 3.224696
6.100973 -3.6939416 6.321123 1.4567089 2.362271 3.2587585 3.9725404 13.860006
-0.2313274 8.170661 -0.7887664 -1.0142426 -0.6987554 -1.0786351 5.7603917 0.589549
4.160883 3.6575577 0.17670235 -0.045435674 2.2014408 -3.3386958 -9.895218 -4.338688
5.981037 -2.7992768 -8.188633 9.315543 5.442167 -4.2117376 4.2345834 -0.9484865
-2.03817 2.636358 -3.9489248 6.2946844 4.8581967 -10.994692 -3.468806 -5.0842175
-0.67835176 -2.417591 4.6214666 1.1164111 1.2337795 -1.5033406 -3.4281821 -0.6247446
0.7903822 -1.7627449 9.341598 -5.520706
