res/APW_2d/models/4.pt (torch, 3125 bytes, 1 tensors)

weight f4 [30, 2]
19.437191 -14.688472 4.1730366 -1.4589744 -3.6974852 0.36049253 -7.093377 3.8332434
-3.6095588 -2.7826352 1.3052636 -4.9172344 -4.251477 -3.9153137 4.734426 -0.986808
-0.73073745 -2.5849454 -5.573739 4.6880517 4.1104407 2.9354284 -12.1821 -1.1672785
2.8105927 -2.3703659 3.662217 -1.9854267 -2.8846846 0.07931348 -5.0145836 6.960872
2.811544 5.807195 -6.0576463 3.618415 -3.2283254 -3.8249269 -2.4738255 -3.6124294
4.1076837 0.7355242 -7.7657104 -0.820925 -9.388289 3.6199155 -5.2220664 -0.7653365
3.158867 14.094873 0.11489909 -2.5352716 1.2196478 0.57084143 -4.980906 -0.72598517
-22.474049 5.2660184 -5.8633494 1.7598126
00000000: 5e7f 9b41 fb03 6bc1 8489 8540 acbf babf
00000010: 99a3 6cc0 7a92 b83e f2fc e2c0 dc53 7540
00000020: 0303 67c0 b216 32c0 e112 a73f fc59 9dc0
00000030: 190c 88c0 8094 7ac0 6b80 9740 739f 7cbf
00000040: 9c11 3bbf bf6f 25c0 125c b2c0 8504 9640
00000050: bb88 8340 0fde 3b40 e2e9 42c1 6269 95bf
00000060: c0e0 3340 13b4 17c0 c361 6a40 7622 febf
00000070: ac9e 38c0 1b6f a23d 7877 a0c0 77bf de40
00000080: 56f0 3340 8bd4 b940 3dd8 c1c0 1d94 6740
00000090: e29c 4ec0 9acb 74c0 2853 1ec0 0b32 67c0
000000a0: 2572 8340 504b 3c3f b380 f8c0 2428 52bf
000000b0: 6f36 16c1 b2ac 6740 2b1b a7c0 18ed 43bf
000000c0: e02a 4a40 9a84 6141 3750 eb3d e441 22c0
000000d0: 6b1d 9c3f aa22 123f 9563 9fc0 2ada 39bf
000000e0: daca b3c1 3983 a840 8fa0 bbc0 8a41 e13f
