res/APW_2d/models/41.pt (torch, 3197 bytes, 1 tensors)

weight f4 [30, 2]
00000000: 84af ae40 94a8 dabf d3c4 b040 d3aa bebf
00000010: b98c 67c0 1110 0441 bfb5 44c0 259a 7d40
00000020: a95a b6c0 04ee 54c0 a2bf 133f 417b 1240
00000030: f735 05bf 63e5 a540 5f70 613f e888 9cc0
00000040: cc26 edbf c97a b3bf 8d2a 563f 9b2f 02c0
00000050: 34a1 3dc0 3216 2640 ecd6 abc0 069b 99c0
00000060: 60de c2be 9a60 60bf 7e8e 38c0 52cb 87c0
00000070: 50c0 2840 569f df3d 67c0 6640 f145 68c0
00000080: 4db2 bf40 8f44 c3bf 49a8 94c0 718e b4bf
00000090: 3895 1ac0 da2b 0640 ea79 aac0 061c ecc0
000000a0: a7f6 cb40 1e34 42c0 f1b6 9741 272b 4bc0
000000b0: 63ab d3c0 7b6d 2641 1669 a340 9569 be3e
000000c0: 0ea4 9bc0 0187 c6c0 0930 2cc1 318f 55c1
000000d0: 13d1 e840 0b7a 1fc0 8c16 45c0 0009 2740
000000e0: d726 0abf fc3c 4540 4811 34bf 51ff 4ac0
5.4589252 -1.7082696 5.5240264 -1.4895881 -3.617964 8.253922 -3.073593 3.9625332
-5.698567 -3.3270273 0.57714283 2.2887728 -0.5203547 5.1842513 0.8806209 -4.891712
-1.8527465 -1.4021846 0.8365868 -2.0341556 -2.962964 2.5951047 -5.3699856 -4.8001738
-0.38060284 -0.876474 -2.883697 -4.2435694 2.6367378 0.10919063 3.6054933 -3.629269
5.990515 -1.5255297 -4.6455426 -1.410597 -2.4153576 2.0964265 -5.327382 -7.378421
6.373859 -3.034431 18.964327 -3.1745088 -6.614671 10.401729 5.106578 0.37189928
-4.863776 -6.20398 -10.761727 -13.347459 7.2755218 -2.491824 -3.0795012 2.6099243
-0.53965515 3.0818472 -0.7033887 -3.1718333
