res/APW_2d/models/42.pt (torch, 3197 bytes, 1 tensors)

weight f4 [30, 2]
2.9172175 -4.588974 -3.2001004 -0.65960264 6.5484643 -0.6717855 2.3900511 -7.5443645
1.4196047 1.4985526 7.170301 -4.132039 -7.4863048 10.989103 -5.2910094 -3.6474538
3.8952527 -10.575044 -2.58918 6.7845263 0.4473468 4.288328 0.829143 -1.149031
3.815011 2.046879 -0.37990308 5.7995925 2.650431 -1.7819911 -2.0400386 -1.1778226
-11.454002 -5.157314 9.713045 7.5246024 4.3715982 3.3259614 9.575056 -2.801235
-0.21679422 4.0227547 -0.70063615 -6.240626 0.568795 -0.11866199 1.9814538 1.0506197
-0.9505942 4.1249084 -0.8776769 6.8854547 -0.3946655 4.39188 3.1659443 4.7710037
-2.3614376 -0.07975418 4.6365747 -7.862215
00000000: b1b3 3a40 e0d8 92c0 72ce 4cc0 b8db 28bf
00000010: 058d d140 22fa 2bbf 99f6 1840 6f6b f1c0
00000020: 9bb5 b53f 92d0 bf3f 1b73 e540 aa39 84c0
00000030: cf8f efc0 5ed3 2f41 f34f a9c0 e26f 69c0
00000040: d24b 7940 6133 29c1 20b5 25c0 d71a d940
00000050: a40a e53e fc39 8940 b742 543f 7313 93bf
00000060: 2429 7440 1100 0340 a882 c2be 4396 b940
00000070: a9a0 2940 4918 e4bf fe8f 02c0 e4c2 96bf
00000080: 9843 37c1 b708 a5c0 a268 1b41 8bc9 f040
00000090: 22e4 8b40 8ddc 5440 6e33 1941 6f47 33c0
000000a0: 4eff 5dbe 68ba 8040 e45c 33bf 35b3 c7c0
000000b0: 8d9c 113f 0f05 f3bd 47a0 fd3f b57a 863f
000000c0: 245a 73bf 40ff 8340 6faf 60bf a555 dc40
000000d0: 9911 cabe 488a 8c40 d59e 4a40 10ac 9840
000000e0: cb21 17c0 2956 a3bd d25e 9440 4497 fbc0
