res/APW_2d/models/43.pt (torch, 3197 bytes, 1 tensors)

weight f4 [30, 2]
6.1150208 -15.275317 0.8569843 6.687034 2.5897121 -4.600688 3.1162672 1.3970163
-1.6937121 5.5899634 0.3349543 4.447872 3.1916466 -0.6694723 3.1551285 -8.337242
-2.882061 -1.2850095 1.7557533 -4.0794 -1.5796797 5.888946 0.8762114 -4.1463704
-5.3988643 6.9123387 -1.9313028 6.7944274 3.1934383 -2.1008584 -0.7971927 3.7018425
-1.7748497 -1.2696221 8.654729 4.1510105 2.6582751 1.8606471 4.2644114 6.178095
17.563103 8.124182 2.252056 5.0638604 -3.5674222 1.5697641 -14.824937 0.40982014
1.0991727 -5.760368 1.0673227 -4.5563006 2.9545202 6.6835065 -5.7614264 -0.45741832
5.9039135 3.7099783 1.0804074 -5.374159
00000000: 40ae c340 b367 74c1 5363 5b3f 2ffc d540
00000010: d8bd 2540 d638 93c0 ec70 4740 6ed1 b23f
00000020: 8fcb d8bf fbe0 b240 217f ab3e f854 8e40
00000030: f043 4c40 8962 2bbf a0ed 4940 5865 05c1
00000040: b073 38c0 317b a4bf 86bc e03f 728a 82c0
00000050: f232 cabf 3f72 bc40 644f 603f 11af 84c0
00000060: 7fc3 acc0 e131 dd40 ee34 f7bf f36b d940
00000070: 4b61 4c40 7774 06c0 d214 4cbf fdea 6c40
00000080: 462e e3bf fa82 a2bf c579 0a41 14d5 8440
00000090: 2e21 2a40 af29 ee3f 0f76 8840 f4b2 c540
000000a0: 3c81 8c41 a6fc 0141 af21 1040 250b a240
000000b0: a550 64c0 08ee c83f f132 6dc1 f2d3 d13e
000000c0: b1b1 8c3f ef54 b8c0 089e 883f 37cd 91c0
000000d0: dc16 3d40 49df d540 9b5d b8c0 bc32 eabe
000000e0: dcec bc40 4970 6d40 ca4a 8a3f 1cf9 abc0
