res/APW_2d/models/48.pt (torch, 3197 bytes, 1 tensors)

weight f4 [30, 2]
-1.2226822 3.324046 -6.8015532 -2.1087239 -2.1095567 -4.8592753 -1.8825228 -3.2965572
-2.631966 2.7718575 -4.74709 0.41320652 5.6466117 2.1932774 -7.124542 -2.8965557
0.5261055 1.4972495 -1.7523843 0.2917911 1.0970227 -0.14204288 7.591188 6.2073183
4.8690357 1.3663025 -1.5503409 7.3696556 -9.943619 3.9494789 0.38337198 2.6856163
7.0642805 -0.19979486 6.9983416 1.5594013 -0.7218793 1.212998 7.347955 3.5194135
3.1620781 3.8614817 -3.4440346 3.1171362 -0.91027546 -12.177839 -6.0482407 -0.24274032
0.036633562 4.7466273 -6.2957234 2.5106304 3.583598 -11.591876 5.294679 5.7738466
-2.0848465 -2.0902991 -1.510765 -11.054941
00000000: da80 9cbf 2bbd 5440 53a6 d9c0 55f5 06c0
00000010: fa02 07c0 2f7f 9bc0 82f6 f0bf cbfa 52c0
00000020: 2272 28c0 1d66 3140 29e8 97c0 ce8f d33e
00000030: 0bb1 b440 a85e 0c40 40fc e3c0 2b61 39c0
00000040: daae 063f dfa5 bf3f 214e e0bf a565 953e
00000050: 3d6b 8c3f b073 11be 03eb f240 5aa2 c640
00000060: 24cf 9b40 00e3 ae3f 9271 c6bf 38d4 eb40
00000070: 1019 1fc1 43c4 7c40 5549 c43e 23e1 2b40
00000080: 960e e240 0697 4cbe 6af2 df40 769a c73f
00000090: 15cd 38bf 8543 9b3f 7322 eb40 123e 6140
000000a0: 7d5f 4a40 8422 7740 106b 5cc0 297f 4740
000000b0: d007 69bf 6ed8 42c1 308b c1c0 eb90 78be
000000c0: 130d 163d 5fe4 9740 9176 c9c0 2bae 2040
000000d0: ab59 6540 5378 39c1 036e a940 5ac3 b840
000000e0: 206e 05c0 76c7 05c0 bf60 c1bf 0ae1 30c1
