res/APW_2d/models/50.pt (torch, 3197 bytes, 1 tensors)

weight f4 [30, 2]
0	0x40e1eeb9	7.060391
1	0x40cdf5c5	6.436251
2	0x3fb941a2	1.4473155
3	0xc071a576	-3.775724
4	0x41005831	8.021531
5	0x40c37c1d	6.1089005
6	0x404d7b30	3.2106438
7	0x40c3e8a9	6.122151
8	0xc15ebdab	-13.921306
9	0xbf0d1d7a	-0.551231
10	0x3ebbbabe	0.3666591
11	0x40b71327	5.721088
12	0x3f6fba46	0.93643606
13	0xbb08998b	-0.0020843472
14	0xc008eb50	-2.1393623
15	0x40169b38	2.3532238
16	0x4048ab3c	3.1354513
17	0xbfd35b52	-1.6512244
18	0xbeb4240c	-0.35183752
19	0x40519e9a	3.2753053
20	0xbf8c15f3	-1.0944198
21	0x40a4f847	5.1553073
22	0x3f783161	0.96950346
23	0x40b8eb03	5.778688
24	0xc0a7d6eb	-5.244985
25	0x4086a7cf	4.2079844
26	0x400e3f60	2.222618
27	0xc017294d	-2.3618958
28	0x40b6a79a	5.707959
29	0x40302e58	2.7528286
30	0x41064bfe	8.393553
31	0x3f3f154d	0.7464188
32	0xc112783f	-9.154357
33	0x3ffc9bf7	1.9735097
34	0xc0a06225	-5.0119805
35	0x4097fda9	4.7497144
36	0x40e43129	7.131001
37	0xbebb919d	-0.36634532
38	0x3fc6794f	1.550577
39	0x3fff49e0	1.994442
40	0x3e9d858e	0.30765957
41	0xbd269360	-0.04066789
42	0xc0a3bbca	-5.1166735
43	0xbdfbffa8	-0.12304622
44	0x40f6e71a	7.7157106
45	0x3f44788a	0.7674643
46	0x41677f78	14.46862
47	0x3ec181bd	0.37794295
48	0x40b50a91	5.65754
49	0x3e1f9aa3	0.15586333
50	0xbf5bec64	-0.8590758
51	0xc03d95db	-2.9622715
52	0xc0b7d2eb	-5.744497
53	0xc0266408	-2.5998554
54	0x40f07af7	7.5150104
55	0xbecff5f9	-0.4061735
56	0xc022ea52	-2.5455518
57	0x40864075	4.1953683
58	0xc0d467ac	-6.6376553
59	0xbf957bba	-1.1678383
