res/APW_2d/models/54.pt (torch, 3197 bytes, 1 tensors)

weight f4 [30, 2]
2.1246312 -0.9300503 8.295478 -1.9985465 -2.518542 -1.0569224 9.622848 -0.7879533
1.5718092 -8.820186 -1.4490935 -2.0471609 -7.3146625 -9.202896 0.055583365 -1.7882074
2.069348 0.52385056 3.324283 -0.5188846 -4.580147 -0.08910447 0.5930061 2.7893925
-1.7082269 -6.2850575 -8.530271 -6.707557 0.9294209 0.9308893 -9.20807 6.0967317
2.5932062 5.410186 -7.44822 1.9678115 -8.247458 -0.77955574 2.9155421 3.581999
1.9813845 -6.6436067 -0.7196769 8.19876 3.7820957 0.036346495 -7.535037 6.097704
-4.873476 7.839267 -7.2069087 -3.1677835 -4.8474765 1.2637258 -2.1488664 1.2840965
-4.672652 -0.29582915 -0.7453896 1.4432461
00000000: f5f9 0740 c717 6ebf 47ba 0441 5fd0 ffbf
00000010: cb2f 21c0 3c49 87bf 2ff7 1941 4fb7 49bf
00000020: 0b31 c93f 7b1f 0dc1 e57b b9bf af04 03c0
00000030: b711 eac0 103f 13c1 62ab 633d fbe3 e4bf
00000040: 3370 0440 121b 063f 0dc1 5440 9fd5 04bf
00000050: 9090 92c0 687c b6bd 3fcf 173f 6885 3240
00000060: 2ea7 dabf 311f c9c0 fd7b 08c1 4fa4 d6c0
00000070: 87ee 6d3f c34e 6e3f 4154 13c1 6d18 c340
00000080: 17f7 2540 3e20 ad40 d157 eec0 3fe1 fb3f
00000090: 97f5 03c1 f790 47bf 3e98 3a40 793f 6540
000000a0: 029e fd3f 6d98 d4c0 bf3c 38bf 1f2e 0341
000000b0: db0d 7240 10e0 143d 061f f1c0 6420 c340
000000c0: 84f3 9bc0 46db fa40 ff9e e6c0 f7bc 4ac0
000000d0: 871e 9bc0 c4c1 a13f 0787 09c0 465d a43f
000000e0: 5d86 95c0 eb76 97be dad1 3ebf 4abc b83f
