res/APW_2d/models/56.pt (torch, 3197 bytes, 1 tensors)

weight f4 [30, 2]
0	0x40957e3a	4.6716585
1	0xbfae7bc1	-1.3631517
2	0xc08051f2	-4.010003
3	0x3e618acc	0.22025603
4	0xc0470673	-3.1097686
5	0x3fba648e	1.4561937
6	0x3f9dee70	1.233839
7	0x40b9267b	5.7859473
8	0xc01c4c28	-2.4421482
9	0xc0499179	-3.149504
10	0x40c1a764	6.0516834
11	0x40a01f93	5.0038543
12	0xc100ff70	-8.062363
13	0xc035d6ae	-2.841228
14	0x3d87a21f	0.06622719
15	0x40d443fa	6.633298
16	0x40c75e23	6.2302413
17	0x40ab23b2	5.3481073
18	0x40756164	3.8340693
19	0x4185d6ee	16.729946
20	0x4087c60f	4.242927
21	0xc0a09d4d	-5.0192018
22	0x40a895ba	5.268277
23	0x3ffbd08c	1.9673018
24	0xc1453cdc	-12.327358
25	0xc09544e8	-4.6646614
26	0x3e262e92	0.16228703
27	0x40347803	2.819825
28	0x411d1347	9.817206
29	0x4154b0b2	13.2931385
30	0x40a2ee83	5.091615
31	0x3e8666a3	0.2625018
32	0xbeb9884d	-0.36236802
33	0xbef9c761	-0.48784927
34	0x40a4f29e	5.1546164
35	0xbf9ba46d	-1.2159554
36	0xc089588a	-4.292058
37	0xc097545d	-4.7290483
38	0xc05e57d1	-3.47411
39	0xc094aecf	-4.646339
40	0x40339bcf	2.8063848
41	0xc0f6866a	-7.703908
42	0x40bc5ef4	5.886591
43	0xc18511d4	-16.633705
44	0xbf3a01de	-0.726591
45	0x40ab9110	5.361458
46	0xbff9b56e	-1.9508493
47	0x40132a01	2.2994387
48	0x40854ded	4.1657624
49	0x3f8cbdbd	1.0995404
50	0xc0333fc8	-2.800768
51	0xc0aa9461	-5.3306127
52	0x40517f24	3.273385
53	0xc0083ff8	-2.1289043
54	0x404f0089	3.2344077
55	0x40187eb4	2.3827333
56	0xbf3b89be	-0.7325705
57	0x40ab9f12	5.363168
58	0x3f1f72a8	0.62284327
59	0x3db9f69e	0.090802416
