res/APW_2d/models/57.pt (torch, 3197 bytes, 1 tensors)

weight f4 [30, 2]
-5.590154 -2.2154665 6.7818933 -10.978755 -3.140966 -3.3393686 2.7182481 -2.9477007
-3.7377782 3.7437341 -2.441288 9.48303 -2.5681477 9.620117 -1.3851172 6.141054
2.9357336 -4.9656215 -7.6291647 -0.749437 0.45370147 -11.498131 2.2632313 2.0470645
3.459614 1.0014464 -5.435856 7.0215464 -0.90968573 1.7254894 -4.717421 -2.7271507
-1.0431143 -0.38672075 -7.6727195 5.481836 -0.96290773 5.3647814 0.64640176 5.2107234
-1.5709896 5.7182837 1.8719648 -4.688626 -7.0334206 -0.945956 -4.104133 -2.8499107
-7.121935 -0.91893 -4.7784414 2.1106195 -3.6250048 -0.27634993 -4.2380443 -0.68043643
-10.712454 12.998092 -0.27948803 7.557213
00000000: 8be2 b2c0 34ca 0dc0 4505 d940 fba8 2fc1
00000010: 9605 49c0 37b8 55c0 c7f7 2d40 21a7 3cc0
00000020: c237 6fc0 5799 6f40 103e 1cc0 7eba 1741
00000030: 885c 24c0 00ec 1941 854b b1bf 8483 c440
00000040: 0fe3 3b40 5fe6 9ec0 1e22 f4c0 1adb 3fbf
00000050: 8f4b e83e 58f8 37c1 c8d8 1040 1b03 0340
00000060: 516a 5d40 652f 803f 88f2 adc0 82b0 e040
00000070: 2ae1 68bf d6dc dc3f 1df5 96c0 a389 2ec0
00000080: c584 85bf 4300 c6be eb86 f5c0 336b af40
00000090: 1f81 76bf 4aac ab40 967a 253f 3fbe a640
000000a0: 3016 c9bf 2efc b640 8b9c ef3f 3909 96c0
000000b0: c811 e1c0 2c2a 72bf 0f55 83c0 f064 36c0
000000c0: e4e6 e3c0 ff3e 6bbf fee8 98c0 6414 0740
000000d0: 1400 68c0 bd7d 8dbe 0f9e 87c0 1531 2ebf
000000e0: 3666 2bc1 2ff8 4f41 0e19 8fbe b0d4 f140
