res/APW_2d/models/65.pt (torch, 3197 bytes, 1 tensors)

weight f4 [30, 2]
0.32618153 3.8468792 -5.5650105 3.3278046 -3.6851842 -1.3360611 5.3442082 0.8944525
-4.93578 2.6527834 2.3727865 -1.9597988 1.7952178 4.1539397 11.870433 0.3260918
-1.2199765 -2.157134 9.588948 5.420572 6.5911794 0.006451901 0.19806053 -6.371651
-7.3779774 -0.27030313 6.8062105 8.148643 4.7056866 -3.8400915 -8.010746 8.440943
0.7650247 4.6674924 -3.8501933 2.4723647 -3.5837357 -0.40632623 3.5081751 8.1697
-6.3430004 9.260895 7.3512235 -0.8320229 -2.9603245 -0.00086431846 -6.5622835 -4.093483
2.1404357 11.037338 -1.3557405 1.7055211 2.914154 1.7042572 -11.621663 1.7165605
0.767287 -2.4875383 9.900487 -8.971678
00000000: 4401 a73e 4533 7640 9114 b2c0 c0fa 5440
00000010: 0fda 6bc0 0d04 abbf c103 ab40 d7fa 643f
00000020: e9f1 9dc0 34c7 2940 bcdb 1740 b0da fabf
00000030: b2c9 e53f 13ed 8440 4bed 3d41 81f5 a63e
00000040: 3128 9cbf 7c0e 0ac0 556c 1941 5375 ad40
00000050: f1ea d240 786a d33b 61d0 4a3e 91e4 cbc0
00000060: 6418 ecc0 2c65 8abe 7acc d940 d760 0241
00000070: fc94 9640 0fc4 75c0 042c 00c1 1a0e 0741
00000080: a9d8 433f 195c 9540 9169 76c0 393b 1e40
00000090: ed5b 65c0 fe09 d0be f185 6040 17b7 0241
000000a0: dcf9 cac0 a02c 1441 393d eb40 74ff 54bf
000000b0: f575 3dc0 6e93 62ba 3afe d1c0 d0fd 82c0
000000c0: e6fc 0840 f098 3041 e888 adbf 844e da3f
000000d0: 8081 3a40 1a25 da3f 55f2 39c1 41b8 db3f
000000e0: ec6c 443f d433 1fc0 6568 1e41 fe8b 0fc1
