res/APW_2d/models/71.pt (torch, 3197 bytes, 1 tensors)

weight f4 [30, 2]
-2.7336793 2.482782 -1.6550697 3.9156291 -5.229641 10.045179 -0.30134597 2.9578924
0.02061625 2.7487283 -0.34303737 7.2614055 3.237196 -1.1516061 8.609907 -4.1779494
0.48982763 -0.2941391 8.496231 4.724122 -5.009774 4.627658 4.2955713 4.1569533
-3.1699646 1.1258513 0.2132122 0.72230506 4.181681 -0.92928505 -15.691668 2.1955364
7.9031663 1.1987429 8.630882 9.276346 1.6365665 -0.39129305 10.938348 -5.1458607
0.028975349 -0.17213205 -2.4957643 6.5755467 4.7648063 2.7510295 5.1338096 -0.14341266
-0.11598844 10.383338 -4.3424034 8.008695 0.14148241 -0.20697953 -0.46797466 3.3729365
3.6103373 3.7967708 2.4692552 -0.9271738
00000000: 9af4 2ec0 e6e5 1e40 53d9 d3bf ab99 7a40
00000010: 3859 a7c0 0eb9 2041 054a 9abe 1c4e 3d40
00000020: 69e3 a83c 2aeb 2f40 98a2 afbe 6f5d e840
00000030: 382e 4f40 d467 93bf 2ec2 0941 c3b1 85c0
00000040: b0ca fa3e 6699 96be 90f0 0741 022c 9740
00000050: 1250 a0c0 c615 9440 5275 8940 c305 8540
00000060: b3e0 4ac0 e51b 903f 4d54 5a3e fce8 383f
00000070: 55d0 8540 a0e5 6dbf 1211 7bc1 ab83 0c40
00000080: bde6 fc40 6870 993f 1818 0a41 ea6b 1441
00000090: 037b d13f 9057 c8be 7903 2f41 e4aa a4c0
000000a0: b65d ed3c 6243 30be 9aba 1fc0 e16a d240
000000b0: 4b79 9840 de10 3040 2b48 a440 c5da 12be
000000c0: 598b edbd 2722 2641 f8f4 8ac0 9d23 0041
000000d0: c4e0 103e 71f2 53be 609a efbe 31de 5740
000000e0: c40f 6740 4bfe 7240 4708 1e40 435b 6dbf
