res/APW_2d/models/82.pt (torch, 3197 bytes, 1 tensors)

weight f4 [30, 2]
0	0x404ee43f	3.232681
1	0xbf914c8e	-1.1351488
2	0xbfd9df1f	-1.7021216
3	0xc129a9aa	-10.603922
4	0xc02616fb	-2.5951526
5	0x3f74160d	0.95346147
6	0xc01d3e01	-2.4569094
7	0x3f761f81	0.9614182
8	0xc10b6893	-8.713031
9	0x417b7384	15.715702
10	0x4106bd95	8.421285
11	0xc18487a5	-16.566233
12	0x3fd4e9de	1.6633871
13	0x3ff7eb92	1.9368765
14	0x402f409d	2.7383187
15	0x403d04fc	2.9534292
16	0x400f47d2	2.2387586
17	0x40cdaffa	6.4277315
18	0x3ecb6646	0.39726466
19	0x40b3ea21	5.62233
20	0xbfc4c476	-1.5372455
21	0x4092e0bf	4.589935
22	0x402fb176	2.7452064
23	0x4009957b	2.1497486
24	0xc04b11b1	-3.1729548
25	0xbee7ddd6	-0.45286435
26	0x3e259c16	0.16172823
27	0x3ff76651	1.93281
28	0x3fae507e	1.3618314
29	0x4045646b	3.084254
30	0xbfed529f	-1.8540839
31	0xc03cfad6	-2.9528098
32	0xc098540f	-4.760261
33	0x412f719f	10.96524
34	0x40a1ac74	5.0523014
35	0xc0b1dce5	-5.5582147
36	0x402757c3	2.6147316
37	0xc0b1a41e	-5.551284
38	0x3fc81d7b	1.5633997
39	0x40c7c0b2	6.2422724
40	0xc0a072e4	-5.0140247
41	0x412d8424	10.844761
42	0x404e6ed5	3.2255147
43	0x4143775f	12.216643
44	0xc05c98d1	-3.4468272
45	0xc13a4edf	-11.644256
46	0xc0151f37	-2.3300302
47	0xbf05df49	-0.5229383
48	0xbf2ea618	-0.6822219
49	0x40406dfd	3.0067132
50	0xbff50fe4	-1.9145474
51	0x409adf74	4.839777
52	0xc0522620	-3.283577
53	0x40835b7a	4.1049166
54	0x403e48ad	2.9731858
55	0xc11492ea	-9.285868
56	0x4092d0dc	4.5879955
57	0xc04377f5	-3.0541966
58	0x4066c9e2	3.606072
59	0x40c98aa5	6.2981744
