res/APW_2d/models/86.pt (torch, 3197 bytes, 1 tensors)

weight f4 [30, 2]
-2.0211172 3.173622 2.5506318 5.4630246 1.93462 1.3806549 4.176792 -2.7840383
-0.28199962 6.38606 5.1612864 0.53946114 -1.209713 2.065641 5.0678124 10.52605
1.0058963 0.86049694 -7.5886817 -0.47675627 -6.432772 -1.4433339 -13.006975 -6.807399
4.0219355 -14.420747 -3.75893 12.730593 4.040824 -4.174281 -1.6796718 -7.126701
-0.019597584 -7.3410764 5.97709 8.232239 6.1334014 6.754771 1.0494428 4.122122
0.57957447 2.7009277 -2.6081939 8.124136 -5.1474924 2.070765 -2.000083 -1.3329709
2.1936572 6.832813 -2.7045 0.74879533 1.990673 8.6277275 3.8411877 -5.0493593
-3.1763477 7.4905643 -1.3426279 -2.1947088
00000000: fc59 01c0 9f1c 4b40 8d3d 2340 19d1 ae40
00000010: a1a1 f73f 4db9 b03f 48a8 8540 af2d 32c0
00000020: 4162 90be 9b5a cc40 4229 a540 201a 0a3f
00000030: e0d7 9abf 7633 0440 852b a240 b36a 2841
00000040: 36c1 803f 8749 5c3f 7bd6 f2c0 6619 f4be
00000050: 45d9 cdc0 2abf b8bf 921c 50c1 36d6 d9c0
00000060: b2b3 8040 61bb 66c1 4f92 70c0 82b0 4b41
00000070: 6e4e 8140 b693 85c0 7cff d6bf ef0d e4c0
00000080: 1d8b a0bc 19ea eac0 5244 bf40 40b7 0341
00000090: d344 c440 1627 d840 2454 863f 6ce8 8340
000000a0: fe5e 143f 00dc 2c40 a6ec 26c0 76fc 0141
000000b0: 42b8 a4c0 6a87 0440 5c01 00c0 ca9e aabf
000000c0: e164 0c40 67a6 da40 8716 2dc0 0db1 3f3f
000000d0: 5fce fe3f 2c0b 0a41 05d6 7540 5a94 a1c0
000000e0: 4849 4bc0 b4b2 ef40 3bdb abbf 1c76 0cc0
