res/APW_2d/models/9.pt (torch, 3125 bytes, 1 tensors)

weight f4 [30, 2]
0	0x3f40e698	0.7535186
1	0xc0d68a56	-6.7043867
2	0xbfe0dc3e	-1.7567213
3	0x40cd53f2	6.416497
4	0xc0acc62a	-5.39919
5	0xc148b534	-12.544239
6	0xbf933f67	-1.1503724
7	0xc026520e	-2.5987582
8	0xc0795864	-3.89602
9	0xc04651b3	-3.0987365
10	0xc0b823f1	-5.7543874
11	0x40a64ba0	5.1967316
12	0xc1484df8	-12.519035
13	0x41094be0	8.581024
14	0x3d86c82b	0.06581148
15	0x4081557c	4.041685
16	0x40b04d57	5.509441
17	0x4092f7dc	4.5927563
18	0xbfa1a67d	-1.2628933
19	0xbfcb3474	-1.5875382
20	0x4156b466	13.419043
21	0xc0e126c2	-7.035981
22	0xbe03b70d	-0.12862797
23	0xc086109d	-4.189528
24	0xc006313b	-2.0967548
25	0xc113127e	-9.192015
26	0xc079e4c6	-3.9045882
27	0xc034a4df	-2.822563
28	0xc0306717	-2.756292
29	0xc09a764a	-4.8269396
30	0xc0924e69	-4.5720716
31	0x3fb5aa0b	1.4192518
32	0x400681b7	2.1016672
33	0x40d09d1e	6.5191793
34	0xbed0994b	-0.40741953
35	0x40b2ed65	5.591479
36	0xc010bfb0	-2.2616997
37	0xc0a0fae8	-5.030628
38	0xc0ac620d	-5.386969
39	0x406c595d	3.6929543
40	0x4066f65a	3.608786
41	0x3f108341	0.5645028
42	0x3f94231d	1.1573216
43	0xc04d5ba1	-3.2087176
44	0xc0280ff6	-2.6259742
45	0xc099dbb3	-4.8080688
46	0x3fab856f	1.3400096
47	0xbe29cc48	-0.16581833
48	0x40557fd9	3.3359282
49	0xc055d005	-3.3408215
50	0x4102879d	8.158109
51	0x415f024e	13.938063
52	0x3f5fea1f	0.87466615
53	0x403ea74e	2.9789615
54	0xc0ad657d	-5.4186387
55	0x40720422	3.7815022
56	0xc09888f7	-4.7667193
57	0x4018df80	2.3886414
58	0x3f762850	0.9615526
59	0xbfbc9b86	-1.4734962
