res/APW_2d/models/92.pt (torch, 3197 bytes, 1 tensors)

weight f4 [30, 2]
4.6619177 8.783047 5.340593 -0.5113548 -2.850614 -1.7176939 2.07003 4.1823854
-5.6178126 -1.0776868 -5.6135287 6.084671 13.75249 3.0223777 2.712428 2.6961296
1.3241038 11.272886 4.016632 -3.2435617 -3.1395879 -0.4892798 -0.25282124 0.28260455
2.3914647 -4.3442116 -1.543611 9.094915 -4.3655114 -3.5839205 -3.7541776 2.3018188
0.073348336 1.1839601 1.8595076 0.55354726 2.0805614 -0.16226421 10.244576 3.1868382
-0.6726635 -6.473714 4.114435 -2.2726884 -0.6478995 -1.78622 -4.2084136 2.0662196
-17.044662 7.3070836 2.5425758 3.0091863 -0.79803663 4.8245997 -5.0715556 -17.621319
5.7480483 1.7223358 -5.6616645 6.3063807
00000000: 6e2e 9540 5c87 0c41 23e6 aa40 26e8 02bf
00000010: 7670 36c0 65dd dbbf 5f7b 0440 1ad6 8540
00000020: 1fc5 b3c0 a4f1 89bf 07a2 b3c0 a0b5 c240
00000030: 330a 5c41 a36e 4140 6c98 2d40 638d 2c40
00000040: 3c7c a93f be5d 3441 4088 8040 8496 4fc0
00000050: 02ef 48c0 e282 fabe c971 81be 8bb1 903e
00000060: c20d 1940 c803 8bc0 0c95 c5bf c684 1141
00000070: 45b2 8bc0 f45e 65c0 7244 70c0 0051 1340
00000080: a737 963d 018c 973f 5804 ee3f 46b5 0d3f
00000090: eb27 0540 9728 26be c9e9 2341 28f5 4b40
000000a0: ad33 2cbf aa28 cfc0 74a9 8340 ba73 11c0
000000b0: bedc 25bf dba2 e4bf 53ab 86c0 f13c 0440
000000c0: 785b 88c1 a1d3 e940 90b9 2240 8296 4040
000000d0: 214c 4cbf 1f63 9a40 2f4a a2c0 76f8 8cc1
000000e0: 03f0 b740 8075 dc3f 5b2c b5c0 dfcd c940
