res/APW_2d/models/93.pt (torch, 3197 bytes, 1 tensors)

weight f4 [30, 2]
000000 80 60 94 40 7a dc 7c 40 51 f1 6e 40 e0 c9 8f c0
       4.63678 3.9509568 3.7334788 -4.493393
000010 e4 eb df bf 87 d0 1d 40 5a 11 2d c0 4f 23 20 bf
       -1.7493863 2.4658525 -2.704184 -0.62553877
000020 40 92 a2 bf fb 3b 3c c0 93 77 ab c0 8f 35 23 3e
       -1.2700882 -2.941161 -5.3583465 0.159384
000030 60 23 3a c0 e6 79 8c 41 dd 68 9f bf 1d 8f 2f 3f
       -2.908409 17.55952 -1.2453877 0.6857775
000040 30 ad 06 40 d1 bf ba bf 35 b7 a5 40 c5 2a cb 3e
       2.1043205 -1.4589788 5.178614 0.39681068
000050 47 37 30 40 66 b2 86 bf f4 d7 cf 3f a0 e6 a8 40
       2.7533739 -1.0523193 1.6237779 5.2781525
000060 78 51 00 c0 a4 b3 07 41 ad d8 4e 40 31 94 ab c0
       -2.0049725 8.481358 3.2319748 -5.36184
000070 78 9d f4 c0 ef bb 4d c1 dc 2d a4 40 03 ec 50 40
       -7.6442223 -12.858382 5.130598 3.264405
000080 f8 9d 60 c1 6b b5 87 c0 d6 a2 ae 40 0c b2 5f c1
       -14.038567 -4.2408957 5.4573774 -13.980968
000090 54 51 8b 40 af 72 e5 bf 1d d5 1d bf e2 86 95 3f
       4.3536777 -1.7925624 -0.6165331 1.1681788
0000a0 a5 4c a7 c0 d7 9d f7 bf ba 49 07 40 5b fb 1a c0
       -5.228106 -1.9345044 2.113875 -2.4215915
0000b0 5f e2 e9 bf 6d e4 a6 3f 6d 83 78 40 36 ae ec 3f
       -1.8272208 1.303846 3.8830216 1.8490665
0000c0 23 99 5b 3f 6c b0 63 40 7f 39 f0 c0 de 54 16 3e
       0.85780543 3.557643 -7.5070186 0.14680812
0000d0 2d d9 eb c0 cf 6b 49 c0 e5 d4 9e 3f f0 fe ab c0
       -7.3702607 -3.147205 1.240872 -5.3748703
0000e0 c7 65 3b c0 ef 2d 44 bf 92 e5 83 41 98 27 b4 40
       -2.928087 -0.7663259 16.487095 5.629833
