res/APW_2d/models/94.pt (torch, 3197 bytes, 1 tensors)

weight f4 [30, 2]
000000 f2 70 1f c0 1e ba f0 3f 93 e1 8f 41 f6 92 81 c0
       -2.4912686 1.8806798 17.985144 -4.0491896
000010 75 87 b7 40 21 b7 ba bf ad 61 bf 3f df de 66 3f
       5.7352853 -1.4587137 1.4951683 0.90183824
000020 78 fe bf 40 9c 16 23 bf e2 62 b5 c0 16 ef 89 c0
       5.999813 -0.63706374 -5.6683207 -4.3104353
000030 61 cf 87 c0 f9 e4 a3 40 2c 0b 46 40 f3 e8 65 bf
       -4.244065 5.121701 3.0944319 -0.8980858
000040 25 b8 df be 61 fa 7a 40 88 d8 11 40 1b db 29 40
       -0.4369518 3.921532 2.278841 2.6539981
000050 fb 51 8f 40 1e 40 f5 3f fd a5 22 3f f7 f4 d4 3f
       4.4787574 1.9160192 0.6353453 1.6637257
000060 e8 da ce 3f 26 03 85 bd f9 98 a6 c0 d0 7b dc bf
       1.6160555 -0.06494741 -5.2061734 -1.7225285
000070 4d 66 4d c1 70 26 e9 3f 5c 17 2c bf a9 6f 8f c0
       -12.837476 1.8214855 -0.67223144 -4.4823804
000080 b5 ad 6a c0 2d 68 a0 40 61 5f ec bf 18 20 52 40
       -3.6668522 5.012717 -1.8466607 3.2832088
000090 49 af 9e c1 dd 42 05 41 d8 4f 99 3e 4e 8e da 3f
       -19.835588 8.328824 0.29943728 1.7074678
0000a0 f0 30 0d c0 bd 72 1a c0 d3 94 63 40 cd 08 03 c0
       -2.206112 -2.413253 3.5559585 -2.0474122
0000b0 13 26 19 40 52 fa 98 3f e3 f5 f6 bf df 14 40 40
       2.3929489 1.1951392 -1.9293789 3.0012739
0000c0 fb b4 3e 40 db b9 31 bf fc 54 00 bf 49 08 87 bf
       2.9797962 -0.6942422 -0.50129676 -1.0549403
0000d0 3b 97 89 bf 5e 84 e8 c0 83 c6 36 40 9e 18 43 be
       -1.0749277 -7.266158 2.8558662 -0.1905236
0000e0 87 1a 35 3f ec 12 94 c0 de ef 17 40 71 a4 f4 c0
       0.707436 -4.62731 2.3740153 -7.6450734
