res/APW_2d/models/99.pt (torch, 3197 bytes, 1 tensors)

weight f4 [30, 2]
000000 c6 c3 95 c0 81 49 1a 40 bc 6b b8 bf 50 6a 7b 3f
       -4.680148 2.4107363 -1.4407878 0.98209095
000010 bb 9e 3d 40 7f 74 30 3f 37 ce 0f 40 80 f8 85 40
       2.9628131 0.6892776 2.2469614 4.1865845
000020 df 18 b7 3e de 34 59 c0 c0 d9 d6 3f 0e 15 aa c0
       0.35761163 -3.3938518 1.6785202 -5.31507
000030 40 9f 7a 3f ac eb 2b c0 5b 60 59 c1 9a d8 2a 40
       0.97899246 -2.6862593 -13.586024 2.6694703
000040 96 97 9e 40 b9 9e 8c 40 7f a3 88 40 01 e5 8b 40
       4.956004 4.3943753 4.269958 4.3717046
000050 42 2a 6a bf e4 57 1f c0 e6 9b 62 3e f0 66 05 40
       -0.9147073 -2.4897394 0.22129783 2.0844078
000060 c2 35 c9 c0 ee 94 05 c1 96 75 a4 c0 1d 66 2f 40
       -6.287812 -8.34886 -5.1393538 2.7406075
000070 a3 1d e6 3f 8d 06 33 c0 75 94 84 c0 17 24 38 40
       1.7977794 -2.7972748 -4.143122 2.8772027
000080 c9 4a b3 bf d5 f2 51 bf b0 ec c6 40 31 47 d6 3f
       -1.4007198 -0.8201116 6.2163925 1.6740476
000090 47 4a a2 40 d5 d9 e0 3d bd 0d 38 41 1a e3 fc c0
       5.071567 0.10979048 11.503354 -7.9027224
0000a0 73 91 ff bf f9 2e 44 40 bc 37 e8 40 1a 5a 79 40
       -1.9966263 3.065367 7.2568035 3.8961244
0000b0 33 82 bf 40 b0 f3 6b c0 4a b0 3d c0 a8 f7 09 bf
       5.9846435 -3.6867485 -2.9638848 -0.5389352
0000c0 55 e8 b1 40 d7 01 00 c1 05 27 8a 40 15 6b 8f 40
       5.559611 -8.000449 4.317263 4.4818215
0000d0 48 14 8f 40 fd e6 8d 40 3f 43 9c c0 e5 db d4 3e
       4.4712257 4.434447 -4.8832088 0.41574016
0000e0 6f ee 7f c1 7e 0d c7 bf 3d c7 9e 41 a4 84 68 40
       -15.995711 -1.5550992 19.847284 3.6330957
